…
 your model by running the following code.</p><figure class="highlight python"><table><tr><td class="gutter"><pre><span class="line">1</span><br></pre></td><td class="code"><pre><span class="line">model.summary()</span><br></pre></td></tr></table></figure><pre><code>____________________________________________________________________________________________________Layer (type)                     Output Shape          Param #     Connected to                     ====================================================================================================input_1 (InputLayer)             (None, 64, 64, 3)     0                                            ____________________________________________________________________________________________________zero_padding2d_1 (ZeroPadding2D) (None, 70, 70, 3)     0           input_1[0][0]                    ____________________________________________________________________________________________________conv1 (Conv2D)                   (None, 32, 32, 64)    9472        zero_padding2d_1[0][0]           ____________________________________________________________________________________________________bn_conv1 (BatchNormalization)    (None, 32, 32, 64)    256         conv1[0][0]                      ____________________________________________________________________________________________________activation_4 (Activation)        (None, 32, 32, 64)    0           bn_conv1[0][0]                   ____________________________________________________________________________________________________max_pooling2d_1 (MaxPooling2D)   (None, 15, 15, 64)    0           activation_4[0][0]               ____________________________________________________________________________________________________res2a_branch2a (Conv2D)          (None, 15, 15, 64)    4160        max_pooling2d_1[0][0]            ____________________________________________________________________________________________________bn2a_branch2a (BatchNormalizatio (None, 15, 15, 64)    256         res2a_branch2a[0][0]             ____________________________________________________________________________________________________activation_5 (Activation)        (None, 15, 15, 64)    0           bn2a_branch2a[0][0]              ____________________________________________________________________________________________________res2a_branch2b (Conv2D)          (None, 15, 15, 64)    36928       activation_5[0][0]               ____________________________________________________________________________________________________bn2a_branch2b (BatchNormalizatio (None, 15, 15, 64)    256         res2a_branch2b[0][0]             ____________________________________________________________________________________________________activation_6 (Activation)        (None, 15, 15, 64)    0           bn2a_branch2b[0][0]              ____________________________________________________________________________________________________res2a_branch2c (Conv2D)          (None, 15, 15, 256)   16640       activation_6[0][0]               ____________________________________________________________________________________________________res2a_branch1 (Conv2D)           (None, 15, 15, 256)   16640       max_pooling2d_1[0][0]            ____________________________________________________________________________________________________bn2a_branch2c (BatchNormalizatio (None, 15, 15, 256)   1024        res2a_branch2c[0][0]             ____________________________________________________________________________________________________bn2a_branch1 (BatchNormalization (None, 15, 15, 256)   1024        res2a_branch1[0][0]              ____________________________________________________________________________________________________add_2 (Add)                      (None, 15, 15, 256)   0           bn2a_branch2c[0][0]                                                                                 bn2a_branch1[0][0]               ____________________________________________________________________________________________________activation_7 (Activation)        (None, 15, 15, 256)   0           add_2[0][0]                      ____________________________________________________________________________________________________res2b_branch2a (Conv2D)          (None, 15, 15, 64)    16448       activation_7[0][0]               ____________________________________________________________________________________________________bn2b_branch2a (BatchNormalizatio (None, 15, 15, 64)    256         res2b_branch2a[0][0]             ____________________________________________________________________________________________________activation_8 (Activation)        (None, 15, 15, 64)    0           bn2b_branch2a[0][0]              ____________________________________________________________________________________________________res2b_branch2b (Conv2D)          (None, 15, 15, 64)    36928       activation_8[0][0]               ____________________________________________________________________________________________________bn2b_branch2b (BatchNormalizatio (None, 15, 15, 64)    256         res2b_branch2b[0][0]             ____________________________________________________________________________________________________activation_9 (Activation)        (None, 15, 15, 64)    0           bn2b_branch2b[0][0]              ____________________________________________________________________________________________________res2b_branch2c (Conv2D)          (None, 15, 15, 256)   16640       activation_9[0][0]               ____________________________________________________________________________________________________bn2b_branch2c (BatchNormalizatio (None, 15, 15, 256)   1024        res2b_branch2c[0][0]             ____________________________________________________________________________________________________add_3 (Add)                      (None, 15, 15, 256)   0           bn2b_branch2c[0][0]                                                                                 activation_7[0][0]               ____________________________________________________________________________________________________activation_10 (Activation)       (None, 15, 15, 256)   0           add_3[0][0]                      ____________________________________________________________________________________________________res2c_branch2a (Conv2D)          (None, 15, 15, 64)    16448       activation_10[0][0]              ____________________________________________________________________________________________________bn2c_branch2a (BatchNormalizatio (None, 15, 15, 64)    256         res2c_branch2a[0][0]             ____________________________________________________________________________________________________activation_11 (Activation)       (None, 15, 15, 64)    0           bn2c_branch2a[0][0]              ____________________________________________________________________________________________________res2c_branch2b (Conv2D)          (None, 15, 15, 64)    36928       activation_11[0][0]              ____________________________________________________________________________________________________bn2c_branch2b (BatchNormalizatio (None, 15, 15, 64)    256         res2c_branch2b[0][0]             ____________________________________________________________________________________________________activation_12 (Activation)       (None, 15, 15, 64)    0           bn2c_branch2b[0][0]              ____________________________________________________________________________________________________res2c_branch2c (Conv2D)          (None, 15, 15, 256)   16640       activation_12[0][0]              ____________________________________________________________________________________________________bn2c_branch2c (BatchNormalizatio (None, 15, 15, 256)   1024        res2c_branch2c[0][0]             ____________________________________________________________________________________________________add_4 (Add)                      (None, 15, 15, 256)   0           bn2c_branch2c[0][0]                                                                                 activation_10[0][0]              ____________________________________________________________________________________________________activation_13 (Activation)       (None, 15, 15, 256)   0           add_4[0][0]                      ____________________________________________________________________________________________________res3a_branch2a (Conv2D)          (None, 8, 8, 128)     32896       activation_13[0][0]              ____________________________________________________________________________________________________bn3a_branch2a (BatchNormalizatio (None, 8, 8, 128)     512         res3a_branch2a[0][0]             ____________________________________________________________________________________________________activation_14 (Activation)       (None, 8, 8, 128)     0           bn3a_branch2a[0][0]              ____________________________________________________________________________________________________res3a_branch2b (Conv2D)          (None, 8, 8, 128)     147584      activation_14[0][0]              ____________________________________________________________________________________________________bn3a_branch2b (BatchNormalizatio (None, 8, 8, 128)     512         res3a_branch2b[0][0]             ____________________________________________________________________________________________________activation_15 (Activation)       (None, 8, 8, 128)     0           bn3a_branch2b[0][0]              ____________________________________________________________________________________________________res3a_branch2c (Conv2D)          (None, 8, 8, 512)     66048       activation_15[0][0]              ____________________________________________________________________________________________________res3a_branch1 (Conv2D)           (None, 8, 8, 512)     131584      activation_13[0][0]              ____________________________________________________________________________________________________bn3a_branch2c (BatchNormalizatio (None, 8, 8, 512)     2048        res3a_branch2c[0][0]             ____________________________________________________________________________________________________bn3a_branch1 (BatchNormalization (None, 8, 8, 512)     2048        res3a_branch1[0][0]              ____________________________________________________________________________________________________add_5 (Add)                      (None, 8, 8, 512)     0           bn3a_branch2c[0][0]                                                                                 bn3a_branch1[0][0]               ____________________________________________________________________________________________________activation_16 (Activation)       (None, 8, 8, 512)     0           add_5[0][0]                      ____________________________________________________________________________________________________res3b_branch2a (Conv2D)          (None, 8, 8, 128)     65664       activation_16[0][0]              ____________________________________________________________________________________________________bn3b_branch2a (BatchNormalizatio (None, 8, 8, 128)     512         res3b_branch2a[0][0]             ____________________________________________________________________________________________________activation_17 (Activation)       (None, 8, 8, 128)     0           bn3b_branch2a[0][0]              ____________________________________________________________________________________________________res3b_branch2b (Conv2D)          (None, 8, 8, 128)     147584      activation_17[0][0]              ____________________________________________________________________________________________________bn3b_branch2b (BatchNormalizatio (None, 8, 8, 128)     512         res3b_branch2b[0][0]             ____________________________________________________________________________________________________activation_18 (Activation)       (None, 8, 8, 128)     0           bn3b_branch2b[0][0]              ____________________________________________________________________________________________________res3b_branch2c (Conv2D)          (None, 8, 8, 512)     66048       activation_18[0][0]              ____________________________________________________________________________________________________bn3b_branch2c (BatchNormalizatio (None, 8, 8, 512)     2048        res3b_branch2c[0][0]             ____________________________________________________________________________________________________add_6 (Add)                      (None, 8, 8, 512)     0           bn3b_branch2c[0][0]                                                                                 activation_16[0][0]              ____________________________________________________________________________________________________activation_19 (Activation)       (None, 8, 8, 512)     0           add_6[0][0]                      ____________________________________________________________________________________________________res3c_branch2a (Conv2D)          (None, 8, 8, 128)     65664       activation_19[0][0]              ____________________________________________________________________________________________________bn3c_branch2a (BatchNormalizatio (None, 8, 8, 128)     512         res3c_branch2a[0][0]             ____________________________________________________________________________________________________activation_20 (Activation)       (None, 8, 8, 128)     0           bn3c_branch2a[0][0]              ____________________________________________________________________________________________________res3c_branch2b (Conv2D)          (None, 8, 8, 128)     147584      activation_20[0][0]              ____________________________________________________________________________________________________bn3c_branch2b (BatchNormalizatio (None, 8, 8, 128)     512         res3c_branch2b[0][0]             ____________________________________________________________________________________________________activation_21 (Activation)       (None, 8, 8, 128)     0           bn3c_branch2b[0][0]              ____________________________________________________________________________________________________res3c_branch2c (Conv2D)          (None, 8, 8, 512)     66048       activation_21[0][0]              ____________________________________________________________________________________________________bn3c_branch2c (BatchNormalizatio (None, 8, 8, 512)     2048        res3c_branch2c[0][0]             ____________________________________________________________________________________________________add_7 (Add)                      (None, 8, 8, 512)     0           bn3c_branch2c[0][0]                                                                                 activation_19[0][0]              ____________________________________________________________________________________________________activation_22 (Activation)       (None, 8, 8, 512)     0           add_7[0][0]                      ____________________________________________________________________________________________________res3d_branch2a (Conv2D)          (None, 8, 8, 128)     65664       activation_22[0][0]              ____________________________________________________________________________________________________bn3d_branch2a (BatchNormalizatio (None, 8, 8, 128)     512         res3d_branch2a[0][0]             ____________________________________________________________________________________________________activation_23 (Activation)       (None, 8, 8, 128)     0           bn3d_branch2a[0][0]              ____________________________________________________________________________________________________res3d_branch2b (Conv2D)          (None, 8, 8, 128)     147584      activation_23[0][0]              ____________________________________________________________________________________________________bn3d_branch2b (BatchNormalizatio (None, 8, 8, 128)     512         res3d_branch2b[0][0]             ____________________________________________________________________________________________________activation_24 (Activation)       (None, 8, 8, 128)     0           bn3d_branch2b[0][0]              ____________________________________________________________________________________________________res3d_branch2c (Conv2D)          (None, 8, 8, 512)     66048       activation_24[0][0]              ____________________________________________________________________________________________________bn3d_branch2c (BatchNormalizatio (None, 8, 8, 512)     2048        res3d_branch2c[0][0]             ____________________________________________________________________________________________________add_8 (Add)                      (None, 8, 8, 512)     0           bn3d_branch2c[0][0]                                                                                 activation_22[0][0]              ____________________________________________________________________________________________________activation_25 (Activation)       (None, 8, 8, 512)     0           add_8[0][0]                      ____________________________________________________________________________________________________res4a_branch2a (Conv2D)          (None, 4, 4, 256)     131328      activation_25[0][0]              ____________________________________________________________________________________________________bn4a_branch2a (BatchNormalizatio (None, 4, 4, 256)     1024        res4a_branch2a[0][0]             ____________________________________________________________________________________________________activation_26 (Activation)       (None, 4, 4, 256)     0           bn4a_branch2a[0][0]              ____________________________________________________________________________________________________res4a_branch2b (Conv2D)          (None, 4, 4, 256)     590080      activation_26[0][0]              ____________________________________________________________________________________________________bn4a_branch2b (BatchNormalizatio (None, 4, 4, 256)     1024        res4a_branch2b[0][0]             ____________________________________________________________________________________________________activation_27 (Activation)       (None, 4, 4, 256)     0           bn4a_branch2b[0][0]              ____________________________________________________________________________________________________res4a_branch2c (Conv2D)          (None, 4, 4, 1024)    263168      activation_27[0][0]              ____________________________________________________________________________________________________res4a_branch1 (Conv2D)           (None, 4, 4, 1024)    525312      activation_25[0][0]              ____________________________________________________________________________________________________bn4a_branch2c (BatchNormalizatio (None, 4, 4, 1024)    4096        res4a_branch2c[0][0]             ____________________________________________________________________________________________________bn4a_branch1 (BatchNormalization (None, 4, 4, 1024)    4096        res4a_branch1[0][0]              ____________________________________________________________________________________________________add_9 (Add)                      (None, 4, 4, 1024)    0           bn4a_branch2c[0][0]                                                                                 bn4a_branch1[0][0]               ____________________________________________________________________________________________________activation_28 (Activation)       (None, 4, 4, 1024)    0           add_9[0][0]                      ____________________________________________________________________________________________________res4b_branch2a (Conv2D)          (None, 4, 4, 256)     262400      activation_28[0][0]              ____________________________________________________________________________________________________bn4b_branch2a (BatchNormalizatio (None, 4, 4, 256)     1024        res4b_branch2a[0][0]             ____________________________________________________________________________________________________activation_29 (Activation)       (None, 4, 4, 256)     0           bn4b_branch2a[0][0]              ____________________________________________________________________________________________________res4b_branch2b (Conv2D)          (None, 4, 4, 256)     590080      activation_29[0][0]              ____________________________________________________________________________________________________bn4b_branch2b (BatchNormalizatio (None, 4, 4, 256)     1024        res4b_branch2b[0][0]             ____________________________________________________________________________________________________activation_30 (Activation)       (None, 4, 4, 256)     0           bn4b_branch2b[0][0]              ____________________________________________________________________________________________________res4b_branch2c (Conv2D)          (None, 4, 4, 1024)    263168      activation_30[0][0]              ____________________________________________________________________________________________________bn4b_branch2c (BatchNormalizatio (None, 4, 4, 1024)    4096        res4b_branch2c[0][0]             ____________________________________________________________________________________________________add_10 (Add)                     (None, 4, 4, 1024)    0           bn4b_branch2c[0][0]                                                                                 activation_28[0][0]              ____________________________________________________________________________________________________activation_31 (Activation)       (None, 4, 4, 1024)    0           add_10[0][0]                     ____________________________________________________________________________________________________res4c_branch2a (Conv2D)          (None, 4, 4, 256)     262400      activation_31[0][0]              ____________________________________________________________________________________________________bn4c_branch2a (BatchNormalizatio (None, 4, 4, 256)     1024        res4c_branch2a[0][0]             ____________________________________________________________________________________________________activation_32 (Activation)       (None, 4, 4, 256)     0           bn4c_branch2a[0][0]              ____________________________________________________________________________________________________res4c_branch2b (Conv2D)          (None, 4, 4, 256)     590080      activation_32[0][0]              ____________________________________________________________________________________________________bn4c_branch2b (BatchNormalizatio (None, 4, 4, 256)     1024        res4c_branch2b[0][0]             ____________________________________________________________________________________________________activation_33 (Activation)       (None, 4, 4, 256)     0           bn4c_branch2b[0][0]              ____________________________________________________________________________________________________res4c_branch2c (Conv2D)          (None, 4, 4, 1024)    263168      activation_33[0][0]              ____________________________________________________________________________________________________bn4c_branch2c (BatchNormalizatio (None, 4, 4, 1024)    4096        res4c_branch2c[0][0]             ____________________________________________________________________________________________________add_11 (Add)                     (None, 4, 4, 1024)    0           bn4c_branch2c[0][0]                                                                                 activation_31[0][0]              ____________________________________________________________________________________________________activation_34 (Activation)       (None, 4, 4, 1024)    0           add_11[0][0]                     ____________________________________________________________________________________________________res4d_branch2a (Conv2D)          (None, 4, 4, 256)     262400      activation_34[0][0]              ____________________________________________________________________________________________________bn4d_branch2a (BatchNormalizatio (None, 4, 4, 256)     1024        res4d_branch2a[0][0]             ____________________________________________________________________________________________________activation_35 (Activation)       (None, 4, 4, 256)     0           bn4d_branch2a[0][0]              ____________________________________________________________________________________________________res4d_branch2b (Conv2D)          (None, 4, 4, 256)     590080      activation_35[0][0]              ____________________________________________________________________________________________________bn4d_branch2b (BatchNormalizatio (None, 4, 4, 256)     1024        res4d_branch2b[0][0]             ____________________________________________________________________________________________________activation_36 (Activation)       (None, 4, 4, 256)     0           bn4d_branch2b[0][0]              ____________________________________________________________________________________________________res4d_branch2c (Conv2D)          (None, 4, 4, 1024)    263168      activation_36[0][0]              ____________________________________________________________________________________________________bn4d_branch2c (BatchNormalizatio (None, 4, 4, 1024)    4096        res4d_branch2c[0][0]             ____________________________________________________________________________________________________add_12 (Add)                     (None, 4, 4, 1024)    0           bn4d_branch2c[0][0]                                                                                 activation_34[0][0]              ____________________________________________________________________________________________________activation_37 (Activation)       (None, 4, 4, 1024)    0           add_12[0][0]                     ____________________________________________________________________________________________________res4e_branch2a (Conv2D)          (None, 4, 4, 256)     262400      activation_37[0][0]              ____________________________________________________________________________________________________bn4e_branch2a (BatchNormalizatio (None, 4, 4, 256)     1024        res4e_branch2a[0][0]             ____________________________________________________________________________________________________activation_38 (Activation)       (None, 4, 4, 256)     0           bn4e_branch2a[0][0]              ____________________________________________________________________________________________________res4e_branch2b (Conv2D)          (None, 4, 4, 256)     590080      activation_38[0][0]              ____________________________________________________________________________________________________bn4e_branch2b (BatchNormalizatio (None, 4, 4, 256)     1024        res4e_branch2b[0][0]             ____________________________________________________________________________________________________activation_39 (Activation)       (None, 4, 4, 256)     0           bn4e_branch2b[0][0]              ____________________________________________________________________________________________________res4e_branch2c (Conv2D)          (None, 4, 4, 1024)    263168      activation_39[0][0]              ____________________________________________________________________________________________________bn4e_branch2c (BatchNormalizatio (None, 4, 4, 1024)    4096        res4e_branch2c[0][0]             ____________________________________________________________________________________________________add_13 (Add)                     (None, 4, 4, 1024)    0           bn4e_branch2c[0][0]                                                                                 activation_37[0][0]              ____________________________________________________________________________________________________activation_40 (Activation)       (None, 4, 4, 1024)    0           add_13[0][0]                     ____________________________________________________________________________________________________res4f_branch2a (Conv2D)          (None, 4, 4, 256)     262400      activation_40[0][0]              ____________________________________________________________________________________________________bn4f_branch2a (BatchNormalizatio (None, 4, 4, 256)     1024        res4f_branch2a[0][0]             ____________________________________________________________________________________________________activation_41 (Activation)       (None, 4, 4, 256)     0           bn4f_branch2a[0][0]              ____________________________________________________________________________________________________res4f_branch2b (Conv2D)          (None, 4, 4, 256)     590080      activation_41[0][0]              ____________________________________________________________________________________________________bn4f_branch2b (BatchNormalizatio (None, 4, 4, 256)     1024        res4f_branch2b[0][0]             ____________________________________________________________________________________________________activation_42 (Activation)       (None, 4, 4, 256)     0           bn4f_branch2b[0][0]              ____________________________________________________________________________________________________res4f_branch2c (Conv2D)          (None, 4, 4, 1024)    263168      activation_42[0][0]              ____________________________________________________________________________________________________bn4f_branch2c (BatchNormalizatio (None, 4, 4, 1024)    4096        res4f_branch2c[0][0]             ____________________________________________________________________________________________________add_14 (Add)                     (None, 4, 4, 1024)    0           bn4f_branch2c[0][0]                                                                                 activation_40[0][0]              ____________________________________________________________________________________________________activation_43 (Activation)       (None, 4, 4, 1024)    0           add_14[0][0]                     ____________________________________________________________________________________________________res5a_branch2a (Conv2D)          (None, 2, 2, 512)     524800      activation_43[0][0]              ____________________________________________________________________________________________________bn5a_branch2a (BatchNormalizatio (None, 2, 2, 512)     2048        res5a_branch2a[0][0]             ____________________________________________________________________________________________________activation_44 (Activation)       (None, 2, 2, 512)     0           bn5a_branch2a[0][0]              ____________________________________________________________________________________________________res5a_branch2b (Conv2D)          (None, 2, 2, 512)     2359808     activation_44[0][0]              ____________________________________________________________________________________________________bn5a_branch2b (BatchNormalizatio (None, 2, 2, 512)     2048        res5a_branch2b[0][0]             ____________________________________________________________________________________________________activation_45 (Activation)       (None, 2, 2, 512)     0           bn5a_branch2b[0][0]              ____________________________________________________________________________________________________res5a_branch2c (Conv2D)          (None, 2, 2, 2048)    1050624     activation_45[0][0]              ____________________________________________________________________________________________________res5a_branch1 (Conv2D)           (None, 2, 2, 2048)    2099200     activation_43[0][0]              ____________________________________________________________________________________________________bn5a_branch2c (BatchNormalizatio (None, 2, 2, 2048)    8192        res5a_branch2c[0][0]             ____________________________________________________________________________________________________bn5a_branch1 (BatchNormalization (None, 2, 2, 2048)    8192        res5a_branch1[0][0]              ____________________________________________________________________________________________________add_15 (Add)                     (None, 2, 2, 2048)    0           bn5a_branch2c[0][0]                                                                                 bn5a_branch1[0][0]               ____________________________________________________________________________________________________activation_46 (Activation)       (None, 2, 2, 2048)    0           add_15[0][0]                     ____________________________________________________________________________________________________res5b_branch2a (Conv2D)          (None, 2, 2, 512)     1049088     activation_46[0][0]              ____________________________________________________________________________________________________bn5b_branch2a (BatchNormalizatio (None, 2, 2, 512)     2048        res5b_branch2a[0][0]             ____________________________________________________________________________________________________activation_47 (Activation)       (None, 2, 2, 512)     0           bn5b_branch2a[0][0]              ____________________________________________________________________________________________________res5b_branch2b (Conv2D)          (None, 2, 2, 512)     2359808     activation_47[0][0]              ____________________________________________________________________________________________________bn5b_branch2b (BatchNormalizatio (None, 2, 2, 512)     2048        res5b_branch2b[0][0]             ____________________________________________________________________________________________________activation_48 (Activation)       (None, 2, 2, 512)     0           bn5b_branch2b[0][0]              ____________________________________________________________________________________________________res5b_branch2c (Conv2D)          (None, 2, 2, 2048)    1050624     activation_48[0][0]              ____________________________________________________________________________________________________bn5b_branch2c (BatchNormalizatio (None, 2, 2, 2048)    8192        res5b_branch2c[0][0]             ____________________________________________________________________________________________________add_16 (Add)                     (None, 2, 2, 2048)    0           bn5b_branch2c[0][0]                                                                                 activation_46[0][0]              ____________________________________________________________________________________________________activation_49 (Activation)       (None, 2, 2, 2048)    0           add_16[0][0]                     ____________________________________________________________________________________________________res5c_branch2a (Conv2D)          (None, 2, 2, 512)     1049088     activation_49[0][0]              ____________________________________________________________________________________________________bn5c_branch2a (BatchNormalizatio (None, 2, 2, 512)     2048        res5c_branch2a[0][0]             ____________________________________________________________________________________________________activation_50 (Activation)       (None, 2, 2, 512)     0           bn5c_branch2a[0][0]              ____________________________________________________________________________________________________res5c_branch2b (Conv2D)          (None, 2, 2, 512)     2359808     activation_50[0][0]              ____________________________________________________________________________________________________bn5c_branch2b (BatchNormalizatio (None, 2, 2, 512)     2048        res5c_branch2b[0][0]             ____________________________________________________________________________________________________activation_51 (Activation)       (None, 2, 2, 512)     0           bn5c_branch2b[0][0]              ____________________________________________________________________________________________________res5c_branch2c (Conv2D)          (None, 2, 2, 2048)    1050624     activation_51[0][0]              ____________________________________________________________________________________________________bn5c_branch2c (BatchNormalizatio (None, 2, 2, 2048)    8192        res5c_branch2c[0][0]             ____________________________________________________________________________________________________add_17 (Add)                     (None, 2, 2, 2048)    0           bn5c_branch2c[0][0]                                                                                 activation_49[0][0]              ____________________________________________________________________________________________________activation_52 (Activation)       (None, 2, 2, 2048)    0           add_17[0][0]                     ____________________________________________________________________________________________________avg_pool (AveragePooling2D)      (None, 1, 1, 2048)    0           activation_52[0][0]              ____________________________________________________________________________________________________flatten_1 (Flatten)              (None, 2048)          0           avg_pool[0][0]                   ____________________________________________________________________________________________________fc6 (Dense)                      (None, 6)             12294       flatten_1[0][0]                  ====================================================================================================Total params: 23,600,006Trainable params: 23,546,886Non-trainable params: 53,120____________________________________________________________________________________________________</code></pre><p>Finally, run the code below to visualize your ResNet50. You can 
…
ou’d like to share it on social media ;). It is saved in “File” then “Open…” in the upper bar of the notebook.</li></ul><p>Run the following code.</p><figure class="highlight python"><table><tr><td class="gutter"><pre><span class="line">1</span><br></pre></td><td class="code"><pre><span class="line">happyModel.summary()</span><br></pre></td></tr></table></figure><pre><code>_________________________________________________________________Layer (type)                 Output Shape              Param #   =================================================================input_7 (InputLayer)         (None, 64, 64, 3)         0         _________________________________________________________________zero_padding2d_2 (ZeroPaddin (None, 70, 70, 3)         0         _________________________________________________________________conv0 (Conv2D)               (None, 64, 64, 32)        4736      _________________________________________________________________bn0 (BatchNormalization)     (None, 64, 64, 32)        128       _________________________________________________________________activation_9 (Activation)    (None, 64, 64, 32)        0         _________________________________________________________________max_pool (MaxPooling2D)      (None, 32, 32, 32)        0         _________________________________________________________________flatten_5 (Flatten)          (None, 32768)             0         _________________________________________________________________fc (Dense)                   (None, 1)                 32769     =================================================================Total params: 37,633Trainable params: 37,569Non-trainable params: 64_________________________________________________________________</code></pre><figure class="highlight python"><table><tr><td class="gutter"><pre><span class="line">1</span><br><span class="line">2</span><br></pre></td><td class="code"><pre><span class="line">pl
…
